Linux/project/webots/darwin_model.onnx (onnx, 89403 bytes, 6 tensors)

layer1.weight f4 [128, 23]
0	0x3d3bb1d7	0.0458239
1	0x3cd8b195	0.026451865
2	0xbdca5081	-0.09878636
3	0x3df5dbd3	0.12004819
4	0x3def07f2	0.11671437
5	0xbde8c51d	-0.113657214
6	0xbd4e2cd9	-0.05033574
7	0x3c7e85ef	0.015534862
8	0x3d172693	0.03690202
9	0xbc13b3ca	-0.009015033
10	0xbd259da6	-0.04043355
11	0x3db0b648	0.086285174
12	0xbc241e2b	-0.010016958
13	0x3df49758	0.11942929
14	0x3d265c83	0.04061557
15	0x3cd8089f	0.026371298
16	0xbd56b015	-0.05241402
17	0x3d7a00cb	0.061035912
18	0xbd0bae18	-0.034101576
19	0x3dc64399	0.09680862
20	0xbc62f54f	-0.013852431
21	0x3e133c41	0.14378454
22	0xbd1584ef	-0.03650373
23	0xbdc33368	-0.09531289
24	0xbe36336a	-0.1779305
25	0x3e2c8d6a	0.1685082
26	0xbe3dc0e5	-0.18530615
27	0x398452c4	0.00025238667
28	0x3c845f49	0.016158717
29	0xbd58411c	-0.05279647
30	0x3d7088e9	0.058724318
31	0xbdba690f	-0.091020696
32	0x3c57fd87	0.013183004
33	0xbb844c0c	-0.004037386
34	0xbe21b721	-0.15792514
35	0x3e05558e	0.13020918
36	0x3d650ca8	0.055920273
37	0xbde60027	-0.11230498
38	0x3e598b54	0.21244556
39	0xbce031cd	-0.027367497
40	0xbd90027e	-0.07031725
41	0xbcd41a4c	-0.025891446
42	0xbe141dd8	-0.1446451
43	0x3d29403a	0.041321017
44	0x3d944f39	0.07241673
45	0x3e14b89a	0.14523545
46	0x3da468ca	0.080277994
47	0x3df76975	0.12080661
48	0xbc2b7307	-0.010464436
49	0x3d980603	0.07423022
50	0xbdcb3be1	-0.0992353
51	0xbe3780ed	-0.17920275
52	0x3d37439f	0.044742223
53	0x3c43a637	0.011941484
54	0x3ceca6ec	0.028888188
55	0x3db7f19a	0.08981629
56	0xbe206923	-0.15665106
57	0xbe188514	-0.14894515
58	0x3e31d4ac	0.17366284
59	0x3cc444fb	0.023958674
60	0x3deeb5c7	0.11655765
61	0xbe33ad37	-0.17546545
62	0x3d9d4bbe	0.07680462
63	0xbdcd21a9	-0.10016186
64	0xbcbccbe9	-0.02304645
65	0xbdca6df9	-0.09884257
66	0xbc20876f	-0.009797915
67	0x3d3f9b8c	0.0467792
68	0x3ca4738a	0.020074625
69	0x3c4119c1	0.011785925
70	0xbcb8af8c	-0.022544645
71	0xbd821552	-0.06351723
72	0xbd8f1bb8	-0.06987709
73	0xbcf03228	-0.029320791
74	0x3d9a059d	0.07520602
75	0x3e026973	0.12735538
76	0x3d978502	0.07398416
77	0xbd63df43	-0.05563284
78	0xbd0d4de8	-0.034498125
79	0x3dd6aa6d	0.10481725
80	0x3ca2724c	0.019829892
81	0x3e31f501	0.17378618
82	0x3d952e77	0.07284253
83	0xbe084f00	-0.13311386
84	0xbd1c5c72	-0.0381741
85	0x3d99e213	0.07513823
86	0xbce93032	-0.028465364
87	0x3e22a2ec	0.15882462
88	0x3d586719	0.052832697
89	0x3c3f67a5	0.011682426
90	0x3db8e2f4	0.09027663
91	0x3ce2bc13	0.027677571
92	0x3d4a04d6	0.04932102
93	0xbd8893a4	-0.06668785
94	0x3d356fff	0.04429626
95	0x3e118f9d	0.1421494
96	0xbe010b02	-0.12601855
97	0xbdd00abe	-0.10158299
98	0xbd888001	-0.0666504
99	0xbe130360	-0.14356756
100	0x3daf852e	0.08570324
101	0xbdd290ad	-0.10281501
102	0xbcc107c9	-0.023563283
103	0x3da4c5bc	0.08045527
104	0x3dd830d2	0.10556187
105	0xbe284ece	-0.16436312
106	0x3d90c9f8	0.070697725
107	0x3e48ebda	0.1962122
108	0xbdccadc6	-0.09994082
109	0x3d191d75	0.037381608
110	0x3dbbed8d	0.091761686
111	0x3d4ec12e	0.0504772
112	0x3d2afa11	0.04174239
113	0x3e23b1c0	0.15985775
114	0x3e4d1f1a	0.20031396
115	0xbdadbd97	-0.08483427
116	0x3a2c92d9	0.00065831613
117	0xbd91e882	-0.071244255
118	0xbe2aa2fa	-0.16663733
119	0xbd48d926	-0.049035214
120	0x39401305	0.00018317632
121	0x3c2a7949	0.010404893
122	0x3e276559	0.16347255
123	0x3d26fce0	0.040768504
124	0x3deb53de	0.11490606
125	0xbe04fb7d	-0.1298656
126	0xbe2b44ea	-0.16725507
127	0x3e0bf90d	0.13669224
128	0x3d8e103a	0.06936689
129	0xbd6dc2ff	-0.05804729
130	0xbcca9592	-0.024729524
131	0x3db00157	0.085940056
132	0x3e134e69	0.1438538
133	0xbdf92b2f	-0.1216644
134	0xbd06b43e	-0.032886736
135	0x3df96bdf	0.12178778
136	0x3d9420f7	0.0723285
137	0x3c25e38c	0.010125052
138	0xbd5abb97	-0.053401556
139	0x3db3df6e	0.0878285
140	0x3e030f08	0.12798703
141	0xbd2933bf	-0.041309115
142	0xb8f0d1ef	-0.00011483195
143	0xbd3155af	-0.043294605
144	0x3e1b9263	0.15192561
145	0xbc63b2d9	-0.013897621
146	0x3d3898f1	0.04506773
147	0x3d39cef0	0.045363367
148	0x3c7c88cb	0.015413473
149	0x3c800f41	0.015632274
150	0xbd70530f	-0.05867296
151	0x3d82ff44	0.06396344
152	0x3d6a4dc1	0.05720306
153	0x3d3cdbad	0.046107937
154	0x3ddbd0f1	0.10733212
155	0x3d722cd2	0.059124775
156	0xbe0c38cc	-0.13693541
157	0xbe1221f9	-0.14270772
158	0x3dc091fb	0.094028436
159	0xbd56bec1	-0.05242801
160	0x3dac3306	0.084081694
161	0xbdb83d2f	-0.08996045
162	0xbd38b731	-0.04509658
163	0xbbd640c1	-0.006538481
164	0xbd3fb2bb	-0.04680131
165	0x3d38e946	0.045144342
166	0x3d5f4b01	0.05451489
167	0xbde3596a	-0.11101039
168	0x3dcf21b6	0.10113852
169	0xbc15e087	-0.00914777
170	0x3e31bf1f	0.17358063
171	0xbca01b01	-0.019544126
172	0xbd2a420b	-0.04156689
173	0xbdaa7362	-0.08322789
174	0xbccfe742	-0.025378827
175	0x3dc08e9a	0.09402199
176	0xbcb22f1c	-0.02175098
177	0xbc6039f9	-0.013685697
178	0xbe1404ba	-0.14454928
179	0x3dbbad55	0.0916392
180	0x3d52c2c1	0.051455263
181	0x3d98430b	0.074346624
182	0x3d475bee	0.048671655
183	0xbe1b3557	-0.15157066
184	0x3e04fcdd	0.12987085
185	0x3de4cc17	0.111717395
186	0x3cbba0cf	0.022903828
187	0x3dc93061	0.09823681
188	0xbe2ba16d	-0.16760798
189	0xbe0645f5	-0.13112624
190	0x3d34cb6d	0.044139314
191	0xbd8cf5f4	-0.06882849
192	0x3db50209	0.08838279
193	0x3d75945f	0.05995595
194	0x3e456309	0.1927606
195	0x3e0f68d5	0.14004834
196	0xbe08ee08	-0.13372052
197	0xbc2b94d1	-0.010472492
198	0x3e2cd6c8	0.16878808
199	0x3e149f3b	0.14513867
200	0x3d4c4430	0.049869716
201	0xbbd1b5f6	-0.0063998653
202	0x3e1b2740	0.15151691
203	0x3dc2a25c	0.09503624
204	0x3e1ced01	0.15324785
205	0x3e21e4c6	0.15809926
206	0x3c5e3bec	0.013564091
207	0x3d630beb	0.055431288
208	0x3db0cbd6	0.086326286
209	0x3aad0c78	0.0013202569
210	0xbc5f5cb7	-0.013632945
211	0x3e03e786	0.12881288
212	0xbc0de789	-0.008661159
213	0xbe2b64da	-0.1673769
214	0x3e019b43	0.12656884
215	0x3df15f46	0.1178575
216	0xbd77d0e0	-0.060501933
217	0xbd0f27fd	-0.034950245
218	0xbe00bb16	-0.12571368
219	0xbe04c7d3	-0.12966852
220	0x3b9fbf28	0.0048750825
221	0x3e0368dd	0.12832971
222	0x3df9d756	0.12199275
223	0x3d52a16f	0.051423486
224	0x3de77d6d	0.1130322
225	0xbd066925	-0.032815117
226	0xbdec20c7	-0.11529689
227	0x3c1baa26	0.009501016
228	0xbd7bda4d	-0.061487485
229	0xbdd369a4	-0.10322884
230	0xbb87e33b	-0.004146961
231	0x3e32aa87	0.17447864
232	0x3c5591d3	0.0130352555
233	0x3d0f3c33	0.03496952
234	0xbe21f1e4	-0.1581493
235	0x3c6ace7b	0.014331455
236	0x3d925d51	0.07146705
237	0xbe27d0b8	-0.16388214
238	0xbdc080d7	-0.09399574
239	0x3d76107d	0.06007432
240	0x3ab8229e	0.0014048403
241	0xbd9688c7	-0.07350307
242	0x3d9044c1	0.07044364
243	0x3d925a36	0.071461126
244	0xbe311ada	-0.172954
245	0x3e5c2ce4	0.215015
246	0x3d2e70e8	0.042588145
247	0xbdc218b9	-0.09477372
248	0xbe1b5d07	-0.15172206
249	0x3e247299	0.1605934
250	0xbda47bc5	-0.0803142
251	0xbe01156e	-0.12605831
252	0x3d6549c4	0.05597855
253	0x3e57d53e	0.21077439
254	0x3d38f284	0.045153156
255	0x3d041140	0.032243013

layer1.bias f4 [128]
0	0x3e57b15d	0.21063752
1	0xbe54d8a5	-0.20785768
2	0x3dc79990	0.097460866
3	0xbd8a5a3c	-0.06755492
4	0xbe57599e	-0.2103028
5	0xbd9c4782	-0.076308265
6	0x3dc8d37c	0.098059624
7	0x3d24a787	0.04019883
8	0x3d903028	0.07040435
9	0x3e5e7543	0.2172442
10	0xbd88bb11	-0.06676305
11	0xbd8217ef	-0.06352221
12	0x3c9a0f51	0.018806132
13	0x3e2abc9a	0.16673508
14	0xbe4b22ab	-0.19837444
15	0x3e6a08b5	0.22854884
16	0x3defb2db	0.11704036
17	0xbe5f8a94	-0.21830207
18	0x3b9528fe	0.004552006
19	0xbde62417	-0.11237352
20	0xbe2ec425	-0.1706701
21	0xbdd7ba45	-0.10533575
22	0xbe44d31a	-0.19221154
23	0xbe2f8207	-0.17139445
24	0x3e0c287d	0.1368732
25	0xbd98c7e1	-0.07459999
26	0xbe525413	-0.20539884
27	0xbd62d4ec	-0.05537884
28	0xbd9525a9	-0.07282574
29	0xbe5259a6	-0.2054201
30	0x3e79651e	0.2435498
31	0xbe591652	-0.21199921
32	0xbe3f1654	-0.18660861
33	0xbe1f124e	-0.15534326
34	0x3e5842e6	0.2111927
35	0x3e81ed0c	0.25376165
36	0xbe103530	-0.1408279
37	0xbda11bdb	-0.07866641
38	0xbe2714b9	-0.16316499
39	0xbca78dcf	-0.020453362
40	0xbe1bdf80	-0.15221977
41	0x3e57f197	0.21088253
42	0x3cb7947c	0.02240967
43	0xbe30b69c	-0.1725716
44	0xbd8acf38	-0.06777805
45	0x3e267b77	0.16258036
46	0xbcd5d15d	-0.026100809
47	0xbe4304bf	-0.19044779
48	0xbd4ff45a	-0.05077014
49	0x3e4d8126	0.20068797
50	0xbdbfc515	-0.09363762
51	0x3de2915a	0.1106288
52	0xbe431621	-0.1905141
53	0x3dfe7bd9	0.12425966
54	0xbd10bd39	-0.035336707
55	0xbe090761	-0.13381721
56	0x3da9cebb	0.08291384
57	0x3d968e83	0.07351401
58	0xbe214f98	-0.15753019
59	0xbe4010ae	-0.18756363
60	0x3d8e374c	0.06944141
61	0x3ea0672c	0.31328714
62	0x3e245487	0.1604787
63	0x3e30e7d0	0.1727593
64	0x3d034057	0.03204378
65	0x3d96547a	0.073403314
66	0xbe2274e5	-0.15864904
67	0x3df22d6d	0.118250705
68	0x3e9749bd	0.29548445
69	0xbe12fedc	-0.14355034
70	0x3e52450d	0.20534153
71	0xbe547b0a	-0.2075006
72	0xbe3a7e0e	-0.18212149
73	0xbdd5fbc2	-0.104484096
74	0x3e08f519	0.13374747
75	0xbe2a1a86	-0.1661168
76	0xbde06cca	-0.1095825
77	0x3d81daaf	0.06340539
78	0xbe0d4ca9	-0.13798775
79	0xbe356811	-0.1771548
80	0x3e186412	0.14881924
81	0x3dcceb9d	0.10005877
82	0x3dcf8687	0.10133081
83	0x3e9847ba	0.29742223
84	0x3d00c723	0.03143991
85	0x3d6fdb2c	0.058558628
86	0x3e31b755	0.17355092
87	0xbe3d8eaf	-0.1851146
88	0xbe213b81	-0.15745355
89	0x3d73be9f	0.059507962
90	0xbdc789ac	-0.09743056
91	0xbe31862c	-0.17336339
92	0xbe2091e9	-0.1568066
93	0x3d0d3a4c	0.034479424
94	0x3d9d59c1	0.07683135
95	0x3d004af9	0.0313215
96	0xbe290b94	-0.16508323
97	0xbe4ebe94	-0.20189887
98	0x3d10d82b	0.035362404
99	0x3e001b27	0.12510358
100	0x3d8f8c86	0.070092246
101	0x3e2a6cef	0.16643117
102	0xbb28a119	-0.0025730787
103	0xbe41c061	-0.18921043
104	0x3daaec11	0.08345807
105	0x3e480c99	0.19536056
106	0x3e209ef7	0.1568564
107	0xbde666a7	-0.11250048
108	0xbe549c0e	-0.20762655
109	0xbe4f206d	-0.20227213
110	0xbde37426	-0.11106138
111	0xbdb21067	-0.08694535
112	0x3de1f588	0.110331595
113	0x3e727018	0.23675573
114	0xbdb6e4e0	-0.08930373
115	0x3c7200b4	0.014770675
116	0x3de0d277	0.10977643
117	0x3e473cec	0.19456834
118	0xbda7563b	-0.08170744
119	0xbdda60b4	-0.10662976
120	0x3ddcc94c	0.10780582
121	0xbda2c2f1	-0.07947338
122	0xbd12c9a8	-0.035836846
123	0xbe04f821	-0.12985279
124	0x3daf9787	0.085738234
125	0x3dcd60b8	0.10028213
126	0xbdb178d0	-0.08665621
127	0xbd09e246	-0.033663057

layer2.weight f4 [128, 128]
0	0x3c86959f	0.016428767
1	0xbd2b71cc	-0.041856572
2	0xbd509ecc	-0.05093269
3	0xb97aba90	-0.00023911358
4	0xbc4d7287	-0.0125395125
5	0xbccdc879	-0.025120007
6	0xbc751191	-0.014957801
7	0x3abc4ae5	0.0014365582
8	0xbc6a2a85	-0.014292364
9	0x3d3f329e	0.04667913
10	0x3cd59077	0.026069863
11	0x3d56d7a7	0.052451756
12	0xbc488f61	-0.012241215
13	0x3d22dc68	0.039760977
14	0xbbd34b73	-0.006448203
15	0x3d423685	0.047415275
16	0x3d245a31	0.040125076
17	0x3b4fb214	0.0031691836
18	0xbaee2f6c	-0.0018172092
19	0xbc854b64	-0.0162713
20	0xbc0f0645	-0.008729522
21	0x3b42976f	0.0029692312
22	0xbd547fd5	-0.051879723
23	0xbd271494	-0.04079111
24	0xbca12c28	-0.019674376
25	0x3d11b334	0.035571292
26	0x3ce7bc5f	0.028288065
27	0xbd083a9a	-0.03325901
28	0xbc3a6d34	-0.011378575
29	0xbd57200e	-0.052520804
30	0x3d28e77d	0.04123639
31	0x3c5f38da	0.013624394
32	0xbd72e6a1	-0.059301976
33	0xbc658232	-0.014008092
34	0xbbcb130b	-0.0061973385
35	0x3d5cf681	0.053946022
36	0x3cef1112	0.029182944
37	0xbc311e39	-0.010810428
38	0xbc119d23	-0.008887562
39	0xbd2912c4	-0.041277662
40	0xbd551345	-0.05202033
41	0x3d1a1294	0.037615374
42	0x3c78bb80	0.015181422
43	0xbc3548c7	-0.011064715
44	0xbdbefb2b	-0.0932525
45	0x3cf33c20	0.029691756
46	0xbd2b947b	-0.04188965
47	0x3cab7af9	0.020932661
48	0x3b21886c	0.0024647964
49	0xbcc204ec	-0.023683988
50	0x3d240265	0.040041346
51	0x3d5ed3da	0.054401256
52	0x3d0d11dd	0.034440864
53	0xbcb0a693	-0.021563804
54	0xbd5412f2	-0.05177588
55	0x3d02d4d5	0.031941254
56	0x3cf236b4	0.0295671
57	0x3bebfaf0	0.007201545
58	0x3d3b6ab0	0.045756042
59	0x3d53ed3e	0.051739924
60	0x3caa901f	0.020820675
61	0x3d9498f5	0.07255737
62	0x3cb9098c	0.02258756
63	0x3d81a523	0.063303255
64	0xbc055f30	-0.00814037
65	0xbd81d865	-0.06340102
66	0xbd3cec7e	-0.046123974
67	0xbcd49f29	-0.0259548
68	0xbd4cbbb3	-0.04998369
69	0xbdc4a315	-0.09601418
70	0xbb4b7d79	-0.003105013
71	0x3cdaa294	0.026688851
72	0xbd3875b1	-0.045034114
73	0xbd00b869	-0.031425867
74	0xbc3a8cae	-0.01138608
75	0x3be3dc41	0.0069537465
76	0xbd2c4b7b	-0.04206417
77	0xbc044e3a	-0.008075291
78	0x3cbcbeba	0.023040164
79	0xbd40b15b	-0.04704414
80	0xbd806a4a	-0.06270273
81	0xbcbc8223	-0.023011273
82	0x3d3f7067	0.046738055
83	0xbccea2e2	-0.025224153
84	0xbbefc0a2	-0.007316665
85	0xbc808de9	-0.015692668
86	0xbc4f725a	-0.012661541
87	0xbd11f7d2	-0.03563673
88	0x3d5032d6	0.05082973
89	0x3c37d80d	0.011220944
90	0x3d22df0d	0.0397635
91	0xbb91f7d4	-0.0044545922
92	0xbd1ebc52	-0.038753815
93	0x3d0390f0	0.032120645
94	0xbab77e12	-0.0013999364
95	0x3cabc520	0.02096802
96	0xbd39a33d	-0.04532169
97	0x3c2d5926	0.010580337
98	0x3be05c85	0.0068469667
99	0xbd824ccc	-0.06362304
100	0xbd0445f9	-0.032293294
101	0xbd6032a1	-0.054735783
102	0x3b68c92c	0.0035520298
103	0x3b3701bb	0.0027924615
104	0x3d6b27bd	0.057410944
105	0xbd58850e	-0.052861266
106	0xbd37fc37	-0.044918265
107	0xbd4c5f6c	-0.04989569
108	0xbd8538c8	-0.06504971
109	0x3d0d65ca	0.0345209
110	0xbd4cb1fe	-0.049974434
111	0xbceb06fb	-0.028689852
112	0xbda0a335	-0.07843629
113	0x3ca9f1a2	0.020745102
114	0x3d8f608a	0.07000835
115	0x3c9df8cc	0.019283675
116	0x3cfedc75	0.031110981
117	0xbd4ae692	-0.049536295
118	0xbd769706	-0.06020262
119	0xbcdb4372	-0.026765559
120	0x39d9f126	0.00041569135
121	0x3d4a529c	0.04939519
122	0x3be9eb05	0.007138612
123	0xbd5ebdd7	-0.054380264
124	0xba0163b1	-0.00049358146
125	0xbbe21aa5	-0.006900149
126	0x3c44418b	0.011978517
127	0xbd097dff	-0.033567425
128	0x3d33a763	0.043860804
129	0x3c2a672d	0.010400576
130	0xbd979a69	-0.07402498
131	0x3d04a08e	0.03237968
132	0xbdc7a900	-0.09749031
133	0xbd9a6720	-0.07539201
134	0xbd8702aa	-0.06592305
135	0xbdb38dde	-0.087672934
136	0x3d0a8b51	0.03382427
137	0xbbd2fb5c	-0.006438656
138	0x3c8c4a2a	0.017125208
139	0xbd43d925	-0.047814507
140	0xbd880d0e	-0.06643115
141	0xbd9111c5	-0.070834674
142	0xbd6edfa2	-0.05831874
143	0x3d40f3d7	0.047107544
144	0xbc67ccb1	-0.014147923
145	0x3d90847c	0.070565194
146	0xbd250067	-0.040283587
147	0xbcadd6f7	-0.021220667
148	0xbd274981	-0.040841583
149	0xbd91327c	-0.07089707
150	0x3cb9a880	0.022663355
151	0xbd5e4b4f	-0.05427104
152	0x3d15d563	0.036580455
153	0x3d91c3a3	0.07117393
154	0xbd2fcbfc	-0.042919144
155	0x3d89c20f	0.06726467
156	0x3d86bf17	0.06579416
157	0x3c7c8183	0.015411737
158	0x3d23a36d	0.039950777
159	0xbd7d81bc	-0.061891302
160	0xbcefc14f	-0.029266981
161	0x3d993bef	0.074821346
162	0x3d886268	0.066593945
163	0xbcc93f19	-0.02456622
164	0xbba3c61f	-0.004997983
165	0x3d83ca1b	0.06435033
166	0xbd0e15b3	-0.034688663
167	0xbd9be3fd	-0.07611845
168	0xbc3dd0a9	-0.011585393
169	0x3cc1055b	0.023562124
170	0xbda6b492	-0.0813991
171	0xbdbc0863	-0.09181287
172	0x3cfb8a89	0.030705707
173	0xbc724469	-0.014786818
174	0x3cc8a543	0.024492865
175	0x3c9a2a09	0.018818872
176	0x3c9a330a	0.018823165
177	0xbd6bbbfa	-0.057552315
178	0x3cc0249a	0.023454953
179	0x3d8065e1	0.06269432
180	0xbcc580e1	-0.024109306
181	0xbd5e2067	-0.05423012
182	0x3cb456f9	0.022014128
183	0x3d563728	0.052298695
184	0x3bca51c1	0.0061742966
185	0xbcdf8a2c	-0.027287565
186	0xbbd89e54	-0.006610671
187	0xbd9b6dce	-0.07589303
188	0xbdb81556	-0.089884445
189	0xbd990239	-0.07471127
190	0x3d24c312	0.040225096
191	0xbda7d93e	-0.081957325
192	0x3d596075	0.053070504
193	0xbd8b8c9e	-0.0681393
194	0xbd0d5dc9	-0.03451327
195	0xbc994b53	-0.018712675
196	0x3d907d52	0.07055153
197	0x3d3a2d65	0.045453448
198	0x3c82333c	0.015893571
199	0xbbcc4345	-0.006233605
200	0xbdbdc566	-0.092661664
201	0xbcb6d4c2	-0.022318248
202	0xbdac6766	-0.08418159
203	0x3c699dea	0.014258841
204	0x3d73b345	0.059497137
205	0xbd9cdad9	-0.076589294
206	0x3d66074c	0.056159303
207	0xbd84dc08	-0.0648728
208	0xb9d5d6c3	-0.00040786536
209	0xbd8a818e	-0.06762992
210	0xbd3b3635	-0.045705993
211	0xbdb3cd69	-0.08779413
212	0xbd409d31	-0.04702491
213	0x3a174f49	0.0005772007
214	0x3d8fa496	0.07013814
215	0xbd2d9baf	-0.0423848
216	0xbc3a00be	-0.011352716
217	0xbda7dc4c	-0.08196315
218	0xbdcd0b69	-0.10011942
219	0x3da0d79f	0.078536265
220	0xbdb82ae8	-0.08992559
221	0xbdb76d29	-0.089563675
222	0x3d5dcddb	0.054151397
223	0xba4b788c	-0.00077617983
224	0x3c932dfc	0.017966263
225	0xbd58cb9a	-0.052928545
226	0xbdca5870	-0.09880149
227	0xbdb19817	-0.08671587
228	0xbdc96fd6	-0.09835784
229	0xbc84115f	-0.016121564
230	0x3d8ea81c	0.06965658
231	0x3cd9cfd9	0.026588367
232	0x3c36e7d6	0.011163672
233	0xbc4a836f	-0.012360438
234	0xbdc0ef68	-0.09420663
235	0xbdadc6e4	-0.08485201
236	0xbd8eec4c	-0.06978664
237	0xbaa84d79	-0.0012840471
238	0x3d84ca7c	0.06483933
239	0xbd18ac54	-0.03727372
240	0x3c889686	0.016673338
241	0x3ccf695f	0.0253188
242	0x3d69184d	0.05690794
243	0x3c9356c3	0.017985707
244	0x3d91f66b	0.071270786
245	0xbb08bc62	-0.0020864238
246	0xbb22b802	-0.0024828915
247	0xbd54b3e9	-0.05192939
248	0x3c76fe8b	0.015075336
249	0xbd881f24	-0.066465646
250	0x3d361493	0.044453215
251	0xbd89006b	-0.06689533
252	0xbc075f5f	-0.008262484
253	0xbdc7d64f	-0.09757673
254	0x3cb8d11a	0.022560645
255	0x3c3fdd66	0.0117105

layer2.bias f4 [128]
0	0xbd2eb00c	-0.04264836
1	0xbdbd7060	-0.092499495
2	0x3d53a84a	0.051674165
3	0xbda3afc7	-0.07992511
4	0x3dd9985e	0.10624765
5	0x3cee3b70	0.029081076
6	0xbdd0ef32	-0.10201873
7	0x3cfbaeac	0.030722938
8	0x3d8b1946	0.0679193
9	0x3c93fc27	0.018064572
10	0xbdb7139a	-0.089392856
11	0xbcd293af	-0.025705187
12	0xbda879f0	-0.08226383
13	0xbd867f62	-0.06567265
14	0x3c60204b	0.013679574
15	0xbd8c68b6	-0.068559095
16	0xbd944577	-0.07239812
17	0xbdca0934	-0.098650366
18	0xbd32061b	-0.043462854
19	0x3c7d11b3	0.015446114
20	0xbd06da75	-0.03292318
21	0x3c71f6c7	0.014768309
22	0x3c7e0687	0.015504486
23	0x3de23943	0.11046078
24	0xbd875869	-0.0660866
25	0xbc84b6ae	-0.01620039
26	0xbdac0f8a	-0.08401401
27	0x3d08929f	0.033342954
28	0x3d46985d	0.04848515
29	0x3d052c82	0.03251315
30	0x3d010342	0.031497248
31	0x3d57883c	0.052620158
32	0x3d838136	0.064211294
33	0xbd9dd72a	-0.07707055
34	0xbd401d9d	-0.04690324
35	0xbd47d215	-0.048784334
36	0xbdb4556a	-0.08805354
37	0x3c4ded10	0.012568727
38	0xbd399a08	-0.04531291
39	0xbc41e48f	-0.011834278
40	0xbda153ed	-0.07877336
41	0x3d1a366a	0.03764955
42	0x3a256ddd	0.00063106214
43	0x3d199213	0.037492823
44	0xbabd8f41	-0.0014462249
45	0xbd3e0a65	-0.04639663
46	0xbd665ef4	-0.056242898
47	0x3cc13185	0.023583183
48	0xbd83b835	-0.06431619
49	0x3d12e703	0.03586484
50	0xbd4fc862	-0.05072821
51	0xbc360c28	-0.011111297
52	0x3bc6fd42	0.006072671
53	0xbd8a4c7d	-0.0675287
54	0x3c815dbb	0.015791764
55	0xbd8ef876	-0.06980984
56	0x3d882b08	0.066488326
57	0x3bb332b7	0.005468692
58	0x3de2d270	0.11075294
59	0xbcdfe202	-0.027329449
60	0x3ddb3fce	0.10705529
61	0x3d8a720e	0.067600355
62	0xbce650da	-0.028114725
63	0x3d6dcdd1	0.05805761
64	0x3a21df01	0.0006174893
65	0xbdb46e11	-0.08810056
66	0xbdb400a3	-0.08789184
67	0xbda0f35d	-0.07858918
68	0x3d2f7920	0.042840123
69	0xbd203cbd	-0.039120425
70	0xbc7d456a	-0.015458444
71	0x3ca4116b	0.020027837
72	0xbd46cd04	-0.048535362
73	0xbdaa4cf2	-0.083154574
74	0xbd44f090	-0.04808098
75	0xbdc5b8a7	-0.0965436
76	0x3c8172e1	0.015801849
77	0x3cf2948d	0.02961185
78	0xbd9919a0	-0.07475591
79	0xbdaa75a9	-0.08323223
80	0xbd4f2306	-0.05057051
81	0xbd96f344	-0.07370618
82	0xbdb087ac	-0.08619627
83	0xbd195ae6	-0.037440203
84	0xbd57411f	-0.05255234
85	0xbd981dbf	-0.074275486
86	0x3d0027b1	0.031287853
87	0xbd57d8c5	-0.052696962
88	0x3df0982e	0.11747776
89	0xbd89a3e0	-0.0672071
90	0x3d6d69ff	0.057962414
91	0xbc39302e	-0.011302991
92	0xbcaa7a93	-0.020810401
93	0xbdc2e569	-0.09516413
94	0x3d9c6374	0.07636157
95	0x3ceb2407	0.028703703
96	0x3d093488	0.033497363
97	0xbd9dcfee	-0.07705675
98	0xbdaad041	-0.083405025
99	0x3c692568	0.01423011
100	0x3d12f75f	0.035880443
101	0x3d807c6b	0.06273731
102	0xbcdee633	-0.027209377
103	0x3dafd1ab	0.08584913
104	0xbd833d01	-0.0640812
105	0x3bdbd5ce	0.006708837
106	0xbced05ba	-0.028933395
107	0x3bb9ff89	0.005676214
108	0xbdab02b5	-0.08350126
109	0xbd2bb42a	-0.041919865
110	0x3d3bd0d0	0.045853436
111	0xbca4c771	-0.020114632
112	0x3cc9775f	0.024593053
113	0xbd8d989f	-0.06913876
114	0x3d188ff4	0.03724666
115	0xbcfe60b7	-0.031051977
116	0x3dc6f131	0.09713972
117	0xbcdbb538	-0.02681981
118	0xbd00b3d8	-0.031421512
119	0x3d4aa07c	0.049469456
120	0x3d3014ca	0.042988576
121	0x3d0e8857	0.034797993
122	0xbcb3c4e1	-0.021944465
123	0x3d98b59a	0.07456513
124	0xbdbf2437	-0.09333079
125	0x3d62bebc	0.05535768
126	0x3d49d11b	0.049271684
127	0xbd911de4	-0.07085779

layer3.weight f4 [20, 128]
0	0x3cf0129b	0.029305747
1	0x3da5596d	0.08073697
2	0x3d12f462	0.035877593
3	0xbbbfd7fa	-0.005854604
4	0xbb3d34fb	-0.002887069
5	0xbd55ba98	-0.052179903
6	0x3d8ba95e	0.068194136
7	0xbd30a7a1	-0.043128613
8	0x3d14e90e	0.03635507
9	0xbca235cf	-0.019801049
10	0x3d6adf00	0.057341576
11	0x3d0a053c	0.0336964
12	0xbc820895	-0.015873233
13	0xbcb5a730	-0.022174448
14	0x3da0447e	0.07825564
15	0xbd15413f	-0.036439177
16	0xbc38335d	-0.011242715
17	0xbb47c719	-0.0030483662
18	0xbd82f49c	-0.06394312
19	0x3bbbdb47	0.005732927
20	0xbcc767fc	-0.024341576
21	0xbbde63ac	-0.006786784
22	0x3d91447f	0.07093143
23	0x3c15e194	0.00914802
24	0xbcf937f4	-0.030422188
25	0xbd0a589d	-0.033775914
26	0x3d7057e3	0.058677565
27	0xbd1c889d	-0.038216222
28	0xbd90b05d	-0.070648886
29	0x3d8b6b61	0.0680759
30	0x3d1edc5f	0.03878438
31	0x3db61006	0.08889775
32	0xbbb12486	-0.0054059653
33	0x3d5ecbc3	0.05439354
34	0x3c427b32	0.011870192
35	0x3d52ec80	0.051495075
36	0xbcdb49a4	-0.026768513
37	0xbc85b140	-0.016319871
38	0x3c9fe962	0.019520465
39	0xbcadd262	-0.021218482
40	0x3d602518	0.054722875
41	0x3d638fab	0.055556934
42	0x3cb20121	0.021729054
43	0x3d81977c	0.063277215
44	0xbd7dd0eb	-0.061966818
45	0xbd8eb6c5	-0.06968454
46	0xbce91f1d	-0.028457219
47	0xbd2440dd	-0.04010092
48	0xbce76fde	-0.028251585
49	0x3c2b0f6f	0.010440691
50	0x3da9a7da	0.08283968
51	0xbd96929a	-0.07352181
52	0x3d0ee702	0.034888275
53	0xbd5fe91d	-0.054665674
54	0xbbe521dc	-0.0069925617
55	0x3cc08a22	0.023503367
56	0x3cfb9a12	0.030713115
57	0x3dceb7ad	0.10093627
58	0x3c4e7cf8	0.012603037
59	0xbd64c542	-0.055852182
60	0x3cecfc6e	0.028928962
61	0xbcc1ef44	-0.023673661
62	0x3dad3056	0.08456485
63	0x3d5f5441	0.05452371
64	0x3b1bf367	0.0023796202
65	0xbcc2affd	-0.023765558
66	0xbd3563fd	-0.04428481
67	0x3d0520f5	0.032502133
68	0x3b913aaf	0.0044320445
69	0xbd3723ff	-0.044712063
70	0xbd9bf969	-0.076159306
71	0x3d99733b	0.074926816
72	0xbd142762	-0.03617037
73	0xbd122599	-0.035680387
74	0x3d603265	0.05473556
75	0x3c7dc62d	0.015489143
76	0x3c278353	0.010224181
77	0x3ba6ab18	0.005086314
78	0xbd712708	-0.058875114
79	0xbba39d56	-0.004993121
80	0x3cf3bcc5	0.029753098
81	0xbc942e6c	-0.018088542
82	0xbd4be493	-0.049778532
83	0x3d9ed425	0.07755307
84	0x3b6a3115	0.0035734822
85	0x3c80ddd0	0.015730768
86	0xbd74541a	-0.059650518
87	0xbce5c07b	-0.028045883
88	0x3d041b83	0.0322528
89	0xbca9a095	-0.020706454
90	0x3dad5ac5	0.084645785
91	0x3d6fe30e	0.058566146
92	0xbac74964	-0.0015204367
93	0xbd004abf	-0.031321283
94	0x3d02cf54	0.031936005
95	0x3c4fea1c	0.012690093
96	0xbd260141	-0.04052854
97	0xbd33a62a	-0.04385964
98	0xbb099a38	-0.0020996463
99	0x3cde1af7	0.027112467
100	0x3d61596e	0.055016927
101	0x3cb7b70c	0.02242615
102	0x3c85a193	0.016312396
103	0x3c9dc07e	0.019256826
104	0xbd510fea	-0.051040567
105	0x3c0f6fc1	0.008754672
106	0x3d563f60	0.052306533
107	0xbcf02b7f	-0.029317616
108	0x3d293cd3	0.041317772
109	0xba9721ca	-0.0011530456
110	0x3c8ae95b	0.016956976
111	0x3c662d21	0.0140488455
112	0x3d89479c	0.067031115
113	0x3d23f5d7	0.040029373
114	0xbd0d7474	-0.034534886
115	0x3d0476d3	0.032339882
116	0x3c7c890e	0.015413536
117	0xbc691198	-0.014225386
118	0xbcdbe675	-0.026843289
119	0xbc8f2ecf	-0.017478375
120	0x3dc4d2be	0.096105084
121	0x3b4bb6ec	0.0031084372
122	0x3da52a0e	0.08064662
123	0x3d960a24	0.07326153
124	0x3d963a72	0.07335366
125	0x3ac8aae8	0.0015309723
126	0xbd1bee99	-0.03806934
127	0x3d41de31	0.04733104
128	0xbab4fdc1	-0.0013808535
129	0x3d7fe972	0.06247849
130	0x3c978763	0.018497175
131	0xbc21b003	-0.009868625
132	0xbdbee3a5	-0.093207635
133	0x3d72c9bc	0.05927442
134	0xbd736bf9	-0.059429143
135	0x3ccc4fe9	0.024940448
136	0x3cf24c0f	0.029577283
137	0xbae63e0e	-0.0017566101
138	0x3d6ecff5	0.058303792
139	0x3bf83f6e	0.007575921
140	0x3ce21be5	0.027601192
141	0x3cb4d9f7	0.02207659
142	0x3cda18ba	0.026623119
143	0xbd9fc665	-0.07801513
144	0x3ca7f0d7	0.020500584
145	0x3cf4935a	0.029855419
146	0x3d655a0b	0.055994075
147	0xbbf77915	-0.007552276
148	0x3c5d4017	0.01350405
149	0x3b279392	0.0025570136
150	0xbdb947fa	-0.090469316
151	0xbd56b3ff	-0.05241775
152	0xba8873a2	-0.0010410438
153	0xbba48137	-0.0050202864
154	0xbd577593	-0.052602362
155	0xbd9486bd	-0.07252262
156	0xbdb2d64f	-0.08732282
157	0x3d9460fb	0.0724506
158	0x3d91ee3a	0.07125516
159	0x3d6b4592	0.057439394
160	0x3d7db108	0.06193641
161	0x3d93c0c0	0.072144985
162	0xbcd40e84	-0.025885828
163	0xbda4e9fa	-0.0805244
164	0x3c228621	0.009919674
165	0xbd95614b	-0.07293948
166	0xbcb9d915	-0.02268652
167	0x3d32baab	0.04363505
168	0x3c98ddfc	0.018660538
169	0x3d506c80	0.050884724
170	0x3d0380c1	0.03210521
171	0xbd1dfbba	-0.038570143
172	0x3d4b8f0d	0.04969697
173	0x3d7d5a8b	0.061853927
174	0x3d18d8a8	0.037315995
175	0xbbb4a8b3	-0.0055132746
176	0x3c285dba	0.010276252
177	0xbcf31491	-0.029672893
178	0xbdb06828	-0.08613616
179	0xbb68270c	-0.0035423664
180	0xbc50d277	-0.012745491
181	0xbccdea89	-0.02513625
182	0x3cf1cc92	0.029516492
183	0xbcdff68c	-0.027339242
184	0x3d114632	0.035467334
185	0xbc3c2ce5	-0.011485313
186	0xbd476f33	-0.048690032
187	0x3d8379d1	0.06419719
188	0xbd1c4bd9	-0.03815827
189	0xbd2f0153	-0.042725872
190	0x3b3aba74	0.0028492482
191	0xbd283dbd	-0.041074503
192	0xbd9633bc	-0.07334086
193	0x3c029230	0.007969424
194	0xbca726e9	-0.020404296
195	0xbc81e84e	-0.015857842
196	0x3cf0f16c	0.029411994
197	0xbd86b948	-0.06578308
198	0xbc8610b4	-0.016365387
199	0xbd163bdf	-0.03667819
200	0xbcdb94ef	-0.026804416
201	0x3d7eeb69	0.062236223
202	0xbd5296fd	-0.051413525
203	0xbd5c769a	-0.053824045
204	0x3a7557cf	0.0009359093
205	0xbc217df5	-0.009856691
206	0x3ca408d9	0.02002375
207	0xbdad9166	-0.08474998
208	0x3d95a401	0.07306672
209	0xbb62f58f	-0.0034631228
210	0x3c9d9d38	0.019240007
211	0x3d59bebb	0.05316041
212	0x3d06b799	0.032889936
213	0xbd86e303	-0.06586268
214	0xbd841a59	-0.06450338
215	0xbd02b996	-0.03191527
216	0xbc71547b	-0.014729614
217	0xbd86b7f3	-0.06578054
218	0xbd3d787f	-0.046257492
219	0x3cdea003	0.027175909
220	0xbc738425	-0.014863049
221	0xbdb87f7e	-0.09008692
222	0xbc18e0e9	-0.0093309665
223	0xbd21bd11	-0.03948695
224	0xbc890fd5	-0.016731182
225	0xbd2ca6a9	-0.042151127
226	0xbd9976e9	-0.074933834
227	0xbcd5bc8d	-0.026090885
228	0x3d8e423c	0.06946227
229	0x3d88abeb	0.06673416
230	0xbca80c9d	-0.020513827
231	0xbd35e882	-0.04441119
232	0x3d817510	0.06321156
233	0xbce89772	-0.028392527
234	0x3d5d8863	0.054085147
235	0x3d800bb0	0.06252229
236	0xbdc0f78b	-0.09422215
237	0x3d92f7ab	0.07176145
238	0xbcab97f1	-0.020946475
239	0x3d2d87ea	0.042365946
240	0xbaee133b	-0.001816369
241	0x3cdae953	0.026722586
242	0x3ceb020c	0.0286875
243	0x3d945972	0.07243623
244	0xbd6c18df	-0.057640906
245	0xbdb2a256	-0.087223694
246	0x3d92df4f	0.07171499
247	0x3b3fd88f	0.0029273366
248	0x3d443828	0.047905117
249	0x3b0cfb15	0.0021511961
250	0x3d2a7db8	0.0416238
251	0x3c668550	0.01406987
252	0x3d91fe0e	0.07128535
253	0x3c9849eb	0.018589934
254	0xbcb7657a	-0.022387255
255	0x3c570728	0.013124265

layer3.bias f4 [20]
0	0xbcd5f226	-0.026116442
1	0x3d4590ca	0.048233785
2	0x3c8bef2b	0.017081818
3	0x3d4f747f	0.05064821
4	0x3d20855e	0.03918969
5	0x3d2c21d5	0.042024452
6	0x3bed31e2	0.0072386125
7	0xbd34d1b7	-0.044145312
8	0xbc3f42c5	-0.011673634
9	0x3ab20efc	0.0013584788
10	0xbc2b8101	-0.010467769
11	0x3a49e768	0.0007702024
12	0xbd3094de	-0.04311072
13	0xbae68032	-0.0017585813
14	0xbc1e4c09	-0.009661683
15	0x3c2586b2	0.010102915
16	0xbce74d14	-0.028234996
17	0x3c1de2da	0.009636605
18	0x3b83000c	0.0039978083
19	0xbd140377	-0.036136117
