Linux/project/webots/my_trained_model.pth (torch, 91777 bytes, 6 tensors)

layer1.weight f4 [128, 23]
00000000: 0d4e dc3d bfc1 d03d a048 9dbd 43fb 893d
00000010: ecb9 db3d ce74 0dbe 36ff 1dbe 8dc1 923c
00000020: 3a4c 8cbc e46f 15bd cc0b 52bd 5739 363e
00000030: e4d0 4abe 8d38 103e b25a 223d e9f1 14be
00000040: 3d30 2fbe 04d4 c73d 2835 92bc c065 49bd
00000050: 4a06 1abe c2c0 a13c da3f 143c a4c0 9abd
00000060: 2de7 1e3e 81b8 d63d 2023 0fbe 0386 813d
00000070: 5150 cd3d bc13 403e ef18 01be fe6d e4bc
00000080: 700c 073e ed92 4e3c 79f5 383d 8cca 2c3d
00000090: 3a51 19be f956 2bbe 1307 b0b8 7ee7 25be
000000a0: 5618 b93c 2ac8 2fbe 2a61 eb3d 3293 72bd
000000b0: d2ab 2bbd d871 45bd b6ca 9dbd 3090 eb3d
000000c0: 53d4 16be c787 803c 4e85 05be b6ab 8c3d
000000d0: 1a65 b73d 2e7b 07be 2f1c d53d f3ea 16bc
000000e0: 08a5 96bd f869 1a3d a576 1d3e 7148 60bd
000000f0: 6ce4 c73c 6bf0 1a3d 66e2 c5ba a2db 0bbd
00000100: 4003 1d3c 5434 043e ca5f 3abe 008a ebbc
00000110: 2c66 cc3d 3932 86bd 559f 39bd c88d acbc
00000120: 36ee af3d d6f8 043d 156d d43d f184 1e3e
00000130: 344e 57bc 4de7 d93c c832 d63c e0ea 9a3d
00000140: 94be 9abd dd11 943c e2f6 ccbd f138 553d
00000150: c148 c5bd 22eb 18be d33d 7c3d 81ad 083d
00000160: f2e8 163c 69d6 9d3d c954 cb3c 5eb7 6bbd
00000170: b3a7 88bd a3d0 d2bd a9fd eabd d142 4d3d
00000180: b97a 013e aea5 abbd ff6e 8cbd 6f58 e9bd
00000190: 6502 e8bc b2a5 073e d8a2 ca3d 0f89 cf3c
000001a0: 2139 87bd 37ab c63c e459 59bd 5528 4e3d
000001b0: 2011 74bc e8e8 d1bd 3a86 e8bb fdde b7bc
000001c0: ca48 38bb 5478 22bd 7b33 323c cd13 593e
000001d0: 24ee 1a3e 26d3 cc3d 48fd 103e 72e9 123e
000001e0: eece ee3d d011 e2bd 625b 663d a543 303d
000001f0: bea7 bebd c996 053e 534d 22bc d40c 3abd
00000200: b4a8 7f3c 46d2 cb3d ffd2 5cbd 6859 883d
00000210: 67ac 4d3e bd1e 983d 4a4f e3bc 5ea4 0b3e
00000220: d430 0ebe 5552 84bd dffb 1cbe c88d e73a
00000230: a198 b9bd 51e2 4bbc f5b9 82bd 09ec 203e
00000240: 10d4 163e 00d6 373e 3830 bb3d c3fc 8bbd
00000250: ebd1 d1bd 2e56 8bbc 30ba a1bb 776b 0f3d
00000260: e6f2 f8bd ba86 a83b 5b88 403d 62b3 16be
00000270: b594 b3bd cf75 16be dea4 163e 9d7f e63c
00000280: 76b4 483e a8f2 f8bd 7aa0 40bd ca6b 25be
00000290: e833 153e 2583 053e 4b63 a1bd 3b05 1fbe
000002a0: f946 e7bc 9382 1c3e 9731 02bc 2337 193e
000002b0: 3d91 fc3d 4c06 e2bd 7590 05be c6d3 2f3d
000002c0: bdd8 e13d 1ec1 abbd ac0e ac3d b064 fc3d
000002d0: cb4c a3bd b275 f1bd 9c8c f93c 4628 313e
000002e0: cd76 2abd 3a54 1f3d da5c 2cbc 2c9a acbd
000002f0: 2fdb a03d 8004 163d d7bf d4bd 8900 dabc
00000300: 7bae 9d3d dc2c e43c 5311 c4bd 4ed8 eb3d
00000310: d541 fc3d 49d9 5b3d bc5f f6bc 4781 043c
00000320: 19ae 053e 3d5d c93d 9d26 aa3d 9aa1 0bbd
00000330: 8158 7f3d 375b 74bd cb18 143b 5a3a ebbd
00000340: 4182 393d 000a 173d 5fc9 c93c 8432 dc3d
00000350: 1627 b53b 4563 ce3d b200 133c 78ad 223e
00000360: ec99 2e3d 27fc 81bd 9e25 203d 3cb0 a53c
00000370: 9e44 473d 2b0d f13d ac3b 92bd 77fe 363d
00000380: 177a f33d 4b36 cabd 256a ba3d 42d2 dd3c
00000390: 27d7 3f3d 3907 b0bd c300 0e3e 959a 0c3e
000003a0: bcf7 36bd 29a5 613d 3d58 4bbc 1cf4 e13d
000003b0: 4f44 c0bc 99f8 fd3d 93c0 77bc 78e3 ebbc
000003c0: abf8 e9bd 01bb 07be c12e ebbc e6f8 f4bc
000003d0: c994 af3d e2f1 283d 519c c13d 0b74 28be
000003e0: 2cbd 933d 60ba ac3d 0165 253d 9629 10be
000003f0: fe51 9d3d d361 a1bd a78c 57bd ba8a 933d
0.107570745 0.10193204 -0.07679868 0.067373775 0.10728821 -0.13814089 -0.15429386 0.017914558
-0.017126191 -0.03648366 -0.05128078 0.17795311 -0.19806248 0.14084072 0.039637275 -0.14545406
-0.17108245 0.09757236 -0.017847613 -0.049169302 -0.15041462 0.019745234 0.0090484265 -0.075562745
0.15517874 0.1048441 -0.13978243 0.06324389 0.10025085 0.18757528 -0.12607168 -0.02788448
0.13188338 0.012608272 0.045155976 0.04218535 -0.14972392 -0.16732396 -8.393652e-05 -0.16201589
0.022594612 -0.171662 0.11493142 -0.059222408 -0.041911907 -0.048204273 -0.0770468 0.11502111
-0.14729433 0.015689744 -0.13039133 0.06868689 0.089548305 -0.13230583 0.10405766 -0.00921129
-0.07355696 0.037698716 0.1537729 -0.054756586 0.024400912 0.037826937 -0.0015097379 -0.034145005
0.009583294 0.12910587 -0.18200603 -0.028752327 0.09980425 -0.06552548 -0.045317966 -0.0210637
0.08590357 0.03246387 0.10372368 0.154804 -0.013141204 0.02659955 0.026147261 0.0756433
-0.07555881 0.018074924 -0.10008027 0.052056257 -0.09633017 -0.14933446 0.061582398 0.03336859
0.009210812 0.07706911 0.024820702 -0.05754792 -0.06672611 -0.102937005 -0.11474163 0.05011255
0.12644471 -0.0838121 -0.06857108 -0.113938205 -0.028321454 0.13246801 0.09894341 0.02533391
-0.06602693 0.024251563 -0.053064242 0.050331432 -0.014896661 -0.102495015 -0.007096079 -0.022445196
-0.0028119558 -0.039665535 0.010876532 0.2119896 0.15129906 0.10001211 0.14159119 0.14346865
0.116605625 -0.11038554 0.056239493 0.04303326 -0.09309338 0.13045801 -0.009906131 -0.04542239
0.015604187 0.09952216 -0.05391216 0.06657678 0.20085298 0.07427738 -0.027747769 0.1363692
-0.13885814 -0.06461016 -0.15330456 0.0017666155 -0.09062315 -0.012444095 -0.06383125 0.1571504
0.14729333 0.17952728 0.09140056 -0.0683532 -0.10245117 -0.017008867 -0.0049355254 0.035014596
-0.12155704 0.005143014 0.04700504 -0.14716867 -0.08768598 -0.14693378 0.1471133 0.028137023
0.1960009 -0.12155658 -0.047028042 -0.161544 0.14570582 0.13038309 -0.07880267 -0.15529339
-0.028232085 0.15284185 -0.007946393 0.14962439 0.123323895 -0.11036357 -0.13043387 0.042926572
0.11027668 -0.083864436 0.08401236 0.12323892 -0.079736315 -0.11790027 0.030462556 0.1730052
-0.041617204 0.038898684 -0.010520184 -0.084278435 0.07854306 0.036625385 -0.10388153 -0.026611583
0.07699295 0.027853422 -0.09573617 0.11515866 0.12317244 0.053674016 -0.030074947 0.008087463
0.13054694 0.09832237 0.08308146 -0.034089662 0.062340263 -0.0596573 0.0022597786 -0.11485739
0.045290235 0.03687477 0.024632154 0.107518226 0.005528341 0.10077528 0.008972334 0.15886486
0.04262726 -0.06346922 0.039098375 0.020225637 0.048649423 0.1177009 -0.07140288 0.04467627
0.11888521 -0.09873637 0.09102277 0.027077798 0.046836045 -0.085951276 0.13867478 0.13730843
-0.04466985 0.05508915 -0.012411174 0.11032888 -0.023470072 0.12400932 -0.015121597 -0.028794989
-0.11424383 -0.1325493 -0.028708817 -0.02990384 0.085733004 0.041246302 0.09453643 -0.16450517
0.07213816 0.08433986 0.040379528 -0.14078364 0.076816544 -0.078799866 -0.05262437 0.07204194

layer1.bias f4 [128]
00000000: a2b4 12be 4aaa 643d ae7a dfbb a793 36be
00000010: 89df 543e e3ee cabd f86e 2dbe d89f 863d
00000020: b4d2 6e3e 97dc 2abe 08b8 78bd b812 ea3d
00000030: 77c3 dd3d 7a9f 3fbd 30ad bcbc d7c2 d53d
00000040: 11de a13c bdc4 773e e2ec b5bd 6733 4dbe
00000050: aadf 1a3e 8a2a 3ebe 891c a2bb 4aa4 24be
00000060: e624 62be 152a 183d 7b59 4d3d e9d4 c83d
00000070: dd79 813d 26ba 68be 8cb8 14be 5465 4fbd
00000080: f53f 1b3e 8f4e 233e c2a6 053e 7af6 9038
00000090: 4726 133e b07b 02be b0be 07bd d36f 13be
000000a0: bae6 2ebe cbe9 173d 71b5 db3d 9707 073e
000000b0: 9e25 12be 5352 54be 2d67 243e f7e2 523e
000000c0: 5e07 42be 3017 093e b6ac 5b3e 46c7 5dbe
000000d0: 3be5 4a3e 0e7b 40be be4c 21be 52c8 2ebc
000000e0: 627f 7e3e 4cc2 a83c 52c5 15be 4a53 253c
000000f0: c5c6 95bd 1e82 1c3e 7dc7 00bd 94f5 15be
00000100: dbd1 0d3d eddc 59be a996 993d 9c25 bd3d
00000110: b5cf a1bd 7c38 31be be5d 6dbd 32cb 1ebe
00000120: 414a 16be 2395 8a3e 7813 373e 5590 873e
00000130: 907e 47be 50e8 c93d fb44 01be 19ae ff3b
00000140: 36d0 e23c c1c2 6abd 24e0 cd3d d6c1 d8bd
00000150: abc3 093d fc08 bd3d 5e41 a7bd 9393 383e
00000160: 3b61 7b3e f42a 073d dec8 a53c 48ca 59be
00000170: 33d5 d3bd c59b 473e c067 3d3e 97fd 0d3d
00000180: dc89 96bd bac5 053d 994b 2cbe 5123 1cbd
00000190: e5fd c6bc f7ca 2fbd 91ff 1f3e 2e89 7b3d
000001a0: 240a bfbd 711f e6bd 484f 283d 6a6d 78bd
000001b0: 6ad5 1c3e 4efc 7ebd 0d8a 09be e3df 6abe
000001c0: 4e84 f43d 2442 07be 957c 273e f049 373e
000001d0: e1ea 11be 8c0f 3dbd 0348 41be 8d2a 53be
000001e0: f0f8 22be fd72 dcbd 13d6 7f3d b11e eb3d
000001f0: 5e02 22be 53fb fe3d e5ed eabd c1e8 593c
-0.14326718 0.055826463 -0.0068200445 -0.17829762 0.20788397 -0.09908845 -0.16936862 0.065734565
0.23322564 -0.16685711 -0.06072238 0.114293516 0.108282976 -0.046782948 -0.023031801 0.104375534
0.01975921 0.24196143 -0.088830724 -0.2003914 0.15124384 -0.18570915 -0.0049472493 -0.16078296
-0.22084388 0.037149508 0.050134163 0.098062344 0.06322072 -0.2272726 -0.14523524 -0.050633743
0.15161116 0.15947936 0.13051894 6.912365e-05 0.1437007 -0.12742496 -0.03314084 -0.14398126
-0.17080203 0.037088197 0.107279666 0.13186489 -0.14272162 -0.20734529 0.16054983 0.20594393
-0.18948123 0.13387752 0.21452603 -0.21658048 0.19814007 -0.18796942 -0.15751931 -0.010667877
0.2485328 0.02060046 -0.14626053 0.010090658 -0.07313303 0.15284011 -0.031440247 -0.14644462
0.034623962 -0.21275683 0.07499439 0.09235689 -0.07900945 -0.17306703 -0.057950728 -0.155072
-0.14676763 0.27066907 0.1787852 0.26477304 -0.19481874 0.09858763 -0.1262397 0.0078027365
0.027687173 -0.057314638 0.10052517 -0.10583846 0.03363387 0.09230229 -0.08166765 0.18025045
0.24548809 0.032999948 0.020237383 -0.2126857 -0.10343399 0.19493015 0.18496609 0.03466567
-0.07350513 0.03265927 -0.16825713 -0.038119618 -0.024290988 -0.04291817 0.15624835 0.06141012
-0.09328106 -0.11236466 0.041091233 -0.06065122 0.15315786 -0.062252335 -0.13431568 -0.22936969
0.119392976 -0.13208824 0.16356118 0.17899299 -0.14249755 -0.046157405 -0.18875127 -0.206217
-0.15915275 -0.1076412 0.062460016 0.11480463 -0.15821216 0.1245028 -0.11471156 0.013300122

layer2.weight f4 [128, 128]
00000000: d997 8bbd d9aa 1b3d 4e9b 923b 7273 12bd
00000010: e5cb 533b 98a6 d63c d21e 563d e398 92bd
00000020: 53e3 fabb 2365 583d 13e5 61bd 7e21 c5bb
00000030: 7f9d dfbb cc58 dbbb 5527 94bd 7ac1 84bd
00000040: 7d12 eabb 99c0 053c 47f9 abbd f69c 77bd
00000050: 5f99 1cbd 8f08 8f3d 203a fcbc 3c30 21bc
00000060: 0dd4 97bd bcb4 a33d 02d1 9ebc 579b a7bd
00000070: 4d6d a7bd a17c c0bd 9b00 8d3c 339f 34bd
00000080: 713c 233d 0152 3cbd 75e9 2a3c bfdf 88bd
00000090: 72d9 ea3c b3ad b4bd 2729 033d ee69 4ebd
000000a0: 65a6 033d 4028 883d c0e1 823d 13f9 96bd
000000b0: 94de 723d 6405 8fbd 573e c6bd 2c04 f3bc
000000c0: b99f 903b 1955 6f3d 19f3 f53c 9d73 3a3c
000000d0: 6540 e3bb f063 49bd a1fc 0ebd 93d3 d33b
000000e0: 056e c53c 88c0 a0bc 68cb 0dbc 8ae2 92bd
000000f0: f50c a4bd 24f5 9fbd 858d 64bd b6c8 66bd
00000100: ed6c 2d3c b3c4 703c 1057 01bc 897c 2a3c
00000110: 00a8 aabd b5c6 9fbd 6d6c f13c 6669 273c
00000120: 9002 bdbb 64e1 5f3d 2c99 eebc 6812 80bc
00000130: b039 933c 5fba d5bb e811 813d 9d48 193d
00000140: 5bde d7bc 0226 693b eed3 4d3d 35e1 563c
00000150: f553 883c a220 fe3c c9f3 80bd 58be d5bd
00000160: 90b0 363d 816f 4e3d 5dd8 cdbb 50ce 7b3d
00000170: 246d 0a3d 6c8f 623c ca05 51bc 822a a8bd
00000180: 0ad3 abbd 863e 043d a11a 0e3b 402a a6bc
00000190: 9f87 143d fd11 88bd 0ef2 acbd 8fc0 603d
000001a0: e3ec 673c f7b3 29bd 2a81 efbc 4035 8ebb
000001b0: 087e bdbd d35e a3bd 8974 31bd 3499 d83c
000001c0: 9010 1f3d 95ee 053d 2db4 713d 6e82 2d3c
000001d0: 131e 8ebd 0af9 3b3c f097 d8bc be9b 67bd
000001e0: 11e9 b5bc 017c c7bd 9a4c 4b3c e7af 683d
000001f0: 8652 98bd 2091 b3bd 91bd c23b 6722 8bbd
00000200: 8e2e 79bd ccdc af3a fed0 76bd 25d1 c4bc
00000210: 7168 1cbd 4bdc 273d 7a50 6f3d bcc3 67bd
00000220: d241 1cbd 57fa 453d 60ba 6bbc 4a6c 9ebd
00000230: defc 933c 4480 5dbd c67d b1bd 11f6 d1bd
00000240: 43ce 7ebd e8aa 413b 146b f8b9 21e0 83bd
00000250: 2f88 85bc 68fc 9dbd 2f7e 58bd bdc4 a63a
00000260: c22c 4c3d 2a61 b2bd f068 683d 11ee c13c
00000270: a864 68bd 90f8 013c 8aa7 383d 4f04 8ebd
00000280: 964a 81bc 8023 083d 9ef6 5f3d fa06 c3bd
00000290: f821 1fbd 6156 b9bc 11a1 26bd b9d4 b9ba
000002a0: 8eab 12bd 195e 8cbd 75ce acbd 74d6 833c
000002b0: ad45 ec3b 744a e6bc e859 6cbc 20e6 72bd
000002c0: 9a54 cfbc 1b2a 483d b854 aebd 0569 2dbd
000002d0: 63c7 3ebd fa5e 1dbd 6a15 56bd 876d 2dbd
000002e0: 205f 1b3d 8aa6 6cbd 37a1 c2bc 615c 36bb
000002f0: e458 653d cfff 27bd 3a02 6e3d f7c1 0abd
00000300: 9031 ffbc 3415 593d 17fa 033d 60dc 023d
00000310: d51a 94bd e848 79bc b9d4 273d 14cd 633d
00000320: 7825 00bc f242 49bd 0296 a7bc 9ad5 c5bd
00000330: 9788 34bb 8258 623d 50d9 3abd 6412 c4bd
00000340: 77f0 63bc 9691 303d 61e3 8fbd 0101 8fbd
00000350: eefa 9ebc 05ad 813d 84b7 4ebd 4935 a7bc
00000360: 9a3b 7a3c 877e b63c cac8 73bd d999 52bd
00000370: 72dc 973c aab7 16bd 7f7c b0bd 0992 36bd
00000380: b2fb 3b3d a352 8cbd 39a8 25bd 0030 94bd
00000390: 78c2 85bc c912 8f3d b82f 973b ca1c 9dbd
000003a0: 9a92 18bc 8212 b53c e901 7abd 9dc5 133a
000003b0: 4290 9fbd a7a7 a0bd f096 3bbd cad3 2f3d
000003c0: 59e2 13bd 0b4e 73ba c318 85bc 5882 bebd
000003d0: 180d 95bc 2d10 fe3b 86f1 f7bb a9a1 a2bd
000003e0: b289 9bbd 0d37 1d3d 43c1 cfbd 5cc4 113d
000003f0: 0f9c 0a3d c1f6 fdbc cbea e8ba ee78 f8bc
-0.06816072 0.03800473 0.00447408 -0.03575463 0.0032317576 0.026202485 0.052275486 -0.07158067
-0.0076564937 0.052830826 -0.055150103 -0.0060159555 -0.006824195 -0.006693935 -0.072340645 -0.06482215
-0.0071433173 0.008163595 -0.08397155 -0.060452424 -0.038232204 0.06984054 -0.030789435 -0.00983816
-0.07413492 0.07993457 -0.019386772 -0.081839256 -0.08175144 -0.09398771 0.017212203 -0.044097137
0.039852563 -0.045976643 0.010431637 -0.06683301 0.02866814 -0.08822193 0.032021668 -0.05039399
0.032141108 0.06648302 0.06390715 -0.07371726 0.0592943 -0.0698345 -0.09679859 -0.029665075
0.0044135717 0.058430765 0.030023145 0.011380103 -0.0069351667 -0.049167573 -0.034908894 0.0064644306
0.024100313 -0.019623056 -0.008654453 -0.07172115 -0.08010284 -0.07810429 -0.055799026 -0.056343757
0.010585052 0.014695334 -0.0078942925 0.010405668 -0.08332825 -0.07801572 0.029470647 0.010218
-0.0057681277 0.05465831 -0.029125772 -0.015633777 0.017971843 -0.0065224613 0.063022435 0.037422765
-0.026351145 0.0035575633 0.05025094 0.013115217 0.016641596 0.03102142 -0.06296498 -0.10436696
0.044601977 0.050399307 -0.006281896 0.06147605 0.03379549 0.01382814 -0.012757728 -0.08211233
-0.08389862 0.03228619 0.0021683353 -0.020283818 0.03626215 -0.06644056 -0.08444606 0.05487114
0.014155599 -0.041431393 -0.029236395 -0.004339844 -0.09252554 -0.07977071 -0.043324027 0.02644024
0.038834155 0.032698233 0.05900972 0.010590179 -0.0693933 0.01147295 -0.026439637 -0.05654501
-0.022205861 -0.09740449 0.0124084 0.05680838 -0.07437615 -0.08767915 0.0059430082 -0.06793671
-0.060835414 0.0013417243 -0.060257904 -0.02402551 -0.03818554 0.040981572 0.058426358 -0.05658315
-0.03814871 0.048334446 -0.014387697 -0.07735498 0.018064912 -0.0540774 -0.086665675 -0.102520116
-0.062208425 0.002955133 -0.00047382026 -0.064392336 -0.016300289 -0.07714158 -0.052854713 0.0012723427
0.049847372 -0.08709939 0.0567407 0.02367309 -0.05673662 0.007932797 0.045081653 -0.069344155
-0.015782636 0.03323698 0.05467855 -0.09522815 -0.038850754 -0.022624196 -0.04068095 -0.0014177776
-0.03580814 -0.06853885 -0.08437816 0.01609347 0.0072104544 -0.028111674 -0.014425732 -0.059301496
-0.025308896 0.04886828 -0.085122526 -0.042336483 -0.04657687 -0.038420655 -0.052266516 -0.04234078
0.037932515 -0.05777601 -0.023758514 -0.0027826058 0.055992976 -0.041015442 0.058107592 -0.033876386
-0.031151563 0.052998737 0.032220926 0.031948447 -0.0723168 -0.015215136 0.040974353 0.0556155
-0.007821433 -0.04913611 -0.020457271 -0.09659882 -0.0027547234 0.05526019 -0.0456174 -0.0957382
-0.013912312 0.04310759 -0.07025791 -0.06982613 -0.019406762 0.06331829 -0.050467983 -0.02041115
0.015272999 0.02227713 -0.05951766 -0.05141625 0.018537734 -0.03679625 -0.08617496 -0.044572864
0.045894332 -0.06851699 -0.040443633 -0.07235718 -0.016328081 0.06986005 0.004613843 -0.07671507
-0.009312296 0.022103552 -0.061036978 0.00056370517 -0.07791187 -0.07844477 -0.045798242 0.042926587
-0.036104534 -0.00092813437 -0.016247159 -0.09302205 -0.01819472 0.007753393 -0.0075666336 -0.079409905
-0.07594623 0.03838258 -0.101442836 0.035587654 0.033840235 -0.03100145 -0.0017770169 -0.030331101

layer2.bias f4 [128]
00000000: 161e dabc 34c3 883d efc9 213d 4582 063d
00000010: 5518 a23c eb8c 2d3d e985 7dbd b00e a5bd
00000020: 95d2 593c 5606 463d ab50 19bd 6c3d d0bd
00000030: c03e 2ebd f06a 3fbd 3929 31bd 8bef 473b
00000040: 2558 98bc 4861 15bd 9c06 363d d147 583d
00000050: 2288 ad3d 221c cd3d 167d 2c3c 0214 81bc
00000060: 94c5 e9b9 cfb7 36bd 90e6 03bd d026 573d
00000070: 6c30 5abd 8cde 923d 5fec d0bd caba bbbc
00000080: 38d1 92bc a5e7 d43c 4b2c a6bd 7cff d1bc
00000090: 6439 f4bc 7574 a2bd 9531 c53d 1e55 373c
000000a0: 20f1 83bc cc3c 3c3c f69a d3bb 4fd2 3e3d
000000b0: 42cc 0ebb 8167 d8bc f386 e3bb 1c31 c53b
000000c0: 8c77 243c 9774 863c a631 3dbd 20a9 133d
000000d0: 6695 a43a b66c f73c 862a 2d3b 387b c7bd
000000e0: b717 a13c ea4a 4ebb fdd0 a1bc 4f83 51bd
000000f0: 1c18 d1bc b7f2 8eba 7fe8 f03d 2f9c b2bd
00000100: 49c4 b93c 92ba 91bd 720d c2bd c4e6 87bd
00000110: 0e22 c4bd 727b 57bd 3bd0 babd dd41 213d
00000120: f220 48bd 5571 1fbc 0cdc fc3d 18f6 68bd
00000130: 2396 a6bd 5f40 4c3c 1dd0 d6bb c3ee 903d
00000140: 31e9 7f3d 3b9b 763d 244c b6bd a626 813d
00000150: 7878 2abd 9dce 663d f585 843d 671f 623d
00000160: b976 e5b9 3034 55bc 4f7d a43c fd1b d8bc
00000170: 2ea1 52bd 2eba efbb c5a4 7dbd 7a66 26bd
00000180: bbcf afbd c9d5 8abd a423 a7bd 5c45 74bd
00000190: 8573 b8bd 0f8b 9fbd 0267 193c 5b58 863d
000001a0: 1ac1 28bd 9996 473c afd6 2abd e2c9 103d
000001b0: 2bf8 413d 186f 613d ec76 4f3d 020d 573d
000001c0: 0324 49bd 14b6 033d 8112 943d c7fc b2bd
000001d0: 2309 693c e823 9fbd 41c6 90bd 78f3 09bd
000001e0: 3813 a6bd 45b4 9bbd e823 4fbd 1973 2a3d
000001f0: 5bdc 813c 58ae 57bc a625 c8bd 22f5 9bbb
-0.026625674 0.06677857 0.03949922 0.03283908 0.019786993 0.042370718 -0.061895285 -0.08059442
0.013294836 0.048345886 -0.037430447 -0.10167965 -0.04254031 -0.046732843 -0.043252204 0.003050777
-0.018596718 -0.036469728 0.044439897 0.052802864 0.08473231 0.100151315 0.01052787 -0.01575661
-0.0004458843 -0.044608887 -0.032202303 0.05252725 -0.053268835 0.07171354 -0.10201334 -0.022916216
-0.017922029 0.025989363 -0.08113917 -0.02563452 -0.029812522 -0.07932369 0.09628598 0.011189727
-0.016106188 0.0114891045 -0.006457682 0.046587285 -0.0021789228 -0.026416542 -0.0069435774 0.006017817
0.010038268 0.016413016 -0.046189927 0.036049962 0.0012556731 0.030203205 0.002642305 -0.09740299
0.019664628 -0.0031477758 -0.019752974 -0.051150616 -0.025524192 -0.0010906075 0.11763095 -0.08721196
0.022676604 -0.071156636 -0.09475221 -0.06635812 -0.09576808 -0.05260796 -0.09121748 0.039369453
-0.048859544 -0.00973161 0.12346658 -0.05687532 -0.08134105 0.012466519 -0.0065555708 0.0707679
0.062478248 0.060206633 -0.089012414 0.063062 -0.041618794 0.056349386 0.06470863 0.05520573
-0.0004376674 -0.013012931 0.020079283 -0.026380533 -0.051423244 -0.0073158955 -0.061924715 -0.040625073
-0.08584543 -0.067790575 -0.08161095 -0.05963646 -0.090064086 -0.07790195 0.009362938 0.06559821
-0.04119978 0.012181901 -0.041708644 0.03534878 0.047355812 0.055037588 0.050650522 0.05250264
-0.04910661 0.032156065 0.07230092 -0.0873962 0.01422337 -0.077705204 -0.07069064 -0.033679456
-0.081091344 -0.07602743 -0.050571352 0.041613672 0.015852144 -0.013164125 -0.09772806 -0.0047594467

layer3.weight f4 [20, 128]
00000000: af79 cb3c 62d4 34bb a6e9 8e3d 66be 94bd
00000010: fb05 a9bd c454 71bd a9d2 d03c 8a7e 5d3d
00000020: 2cb8 72bc 9ac8 cabc b4a4 4fbd f6c5 6c3d
00000030: 1de5 12bd 1da2 733c dda0 0f3b d9d3 153b
00000040: 5a61 1f3c 07da 8cbd b738 4ebd cd60 6d3d
00000050: 8072 f3bc e5c1 8bbd a64f 95bb 17bc 8dbd
00000060: c525 76bd a95f 843c 7d8b 8a3c 39b5 a93c
00000070: 860d 783d b224 a7bd 0a17 403d ae34 8d3c
00000080: 6499 393d af37 f73c d09c febc 9cbf ff3c
00000090: f63b b83c ceac 8dbd 1270 c6bc cacd 84bd
000000a0: 090d 2fbd e4d7 89bd 862c cbbc 1c5c 6abc
000000b0: f0a3 34bc 8ad4 923c 6ebf 8cbd c332 86bd
000000c0: 01bc 63bd 2ed4 b5bc 2b60 49bd ce09 9b3d
000000d0: 920b 4c3d 9e7b 3a3d 4366 c63b 7baf b5bb
000000e0: 145c 7b3c 9009 3cbd e79b 58bd 4745 0f3d
000000f0: bfa3 523d 9669 2f3d ecb2 4fbd 6f6e 1a3d
00000100: 63d4 6d3d 9069 a4bc 7231 423c 5c2b 873c
00000110: b650 07bc 70b4 8f3d 4fb6 233b 1d04 5d3d
00000120: 4196 c3bc 3ba7 2bbc 5f64 36bd 7251 19bd
00000130: 43c8 993d 6a5c 7abc bed9 493d e822 46bc
00000140: 4db6 79bd e427 80bc aeb0 053d 44d9 84bd
00000150: d38a 653d 5e4c d13c b6d4 b2bc 886b e73c
00000160: a0ab 6e3c cb9b 0dbd 340a d2bb 7f04 60bd
00000170: 0291 103d 4706 3bbc e633 7b3d a5d1 eb3c
00000180: b3b7 93bc 7a36 e53c 202a 6abd 8867 b5bc
00000190: 2b21 603d 0165 8bbd 5476 ca3a d23f abbd
000001a0: da78 3c3d 0d0b 37bc 3e95 133d 3318 9ebd
000001b0: e025 893b 38ff 2cbd 3385 033c 92a6 9fbd
000001c0: faa0 52bc 2dfb 29bc bf45 a3bd 93e8 603d
000001d0: 9564 89bd 57c6 66bc 2859 50bd 6d59 873d
000001e0: 4eca 47bd 3100 6fbd 8014 a4bd 0831 82bc
000001f0: bade 7fbb 0a6d 81bc 457f 803c 4e94 8cbd
00000200: e7e7 a23c d69e 1abd 204e 383b cf30 77bb
00000210: ec37 a2bd 5e11 0fbd c1ba 743d 0cc6 353d
00000220: 67dd 81bd b762 363c eb22 9cbd f0c5 acbc
00000230: f7ff 74bd d0e8 c13c 7d42 41bc 9f92 18bd
00000240: 0fdd bbbd 626e 2fbd 9d52 8bbc 8d4b 01bd
00000250: 82c4 2fbc 48ba 66bc 3822 3a3a 9b37 3abd
00000260: 676f 42bb 052d 0dbb 0a71 453d 6035 f43b
00000270: 308a 96bc 2608 0fbd 334e 733d 07fa 10bd
00000280: 5ce6 22bd 5fd4 f23c 14b0 88bd ea99 c13c
00000290: 550d 27bd 7c34 563d db30 81bc 8cbd 7e3d
000002a0: de0f a5bd 3db2 0a3c ad1f 64bc 6e0c 6e3b
000002b0: 2d22 513d 8bec 513c ffc7 0fbb 161c 00bc
000002c0: b215 69bd 4532 62bd 70df 26bb 9519 ccbc
000002d0: 4eb5 2d3c e02a 753c 25e6 81bd 8fa3 923b
000002e0: d47c 27bd 1ad0 20bd efd4 0c3c 5c1b aa3d
000002f0: 9400 0e3c 7dba 843d 9252 bcbc 8d8e 4a3d
00000300: ada2 bdbc 5f46 a7bc bc9a 97bd 0fa5 c13c
00000310: bdd5 a53c 66b4 223d 286f 523d bfa0 27bd
00000320: af32 903d 969d 8bbd 64eb a9bc c5fe 3bbc
00000330: cc5f 2abd ec13 ab3a dc45 f2b9 3719 94bc
00000340: dfa1 8cbc ff1a 17bc 7a64 5bbc 6af2 82bd
00000350: be05 833b df5b 4c3d 093a 903c 18b0 8dbb
00000360: ad1a 473d 4ded 8d3d 01a6 443c a580 893d
00000370: 2673 b13c 10cb 823b 1112 7abd 29b3 893d
00000380: e3cf 7e3d 5eb8 483d 6d15 973d 7719 4b3d
00000390: 96b5 7d3d 9a23 2cbd a0e8 273d 861e 983c
000003a0: 7bfe 8cbd 804c 8f3c 3e67 efbc 22b5 1abd
000003b0: 0045 59bd 253d a1bc 619a 5e3d 6279 2d3d
000003c0: 5d99 1dbd 18ca 673d 0687 eabc 31bc 96bd
000003d0: 9af0 bcbc 16b4 94bc 4d55 173d 150c 8fbc
000003e0: e8aa 36bd 70c7 d8bc e6a1 573d 9705 833d
000003f0: d1db 6f3d 5dc3 d1bc c009 0bbd bbc4 9dbc
0.024838297 -0.002759241 0.06978159 -0.07262878 -0.08253094 -0.05891873 0.025491076 0.054075755
-0.014814418 -0.024753857 -0.050694183 0.057805978 -0.03586303 0.014870194 0.002191595 0.0022861867
0.0097278 -0.06877523 -0.050347056 0.057953645 -0.029717684 -0.06824092 -0.004556614 -0.06920641
-0.060094614 0.016158896 0.016912216 0.020716297 0.060559772 -0.08161296 0.04689697 0.017237034
0.0453123 0.03017792 -0.031080633 0.031219296 0.02248953 -0.069177255 -0.024223361 -0.06484564
-0.04273704 -0.06730631 -0.024801504 -0.014304187 -0.011025414 0.017923612 -0.0687245 -0.06552651
-0.055599216 -0.022195902 -0.04916398 0.075702295 0.04981572 0.045528047 0.006054671 -0.0055446005
0.015341777 -0.045907557 -0.052883055 0.034978177 0.05142569 0.042825304 -0.050707743 0.037702974
0.058063876 -0.020069867 0.011852609 0.016500168 -0.008258989 0.070168376 0.002498049 0.053959
-0.023875358 -0.010476883 -0.044529315 -0.037431188 0.075089 -0.015280822 0.04927992 -0.012093283
-0.06096487 -0.015644021 0.032639198 -0.06486753 0.056040596 0.02554911 -0.021829944 0.028249517
0.014567286 -0.034572404 -0.0064099077 -0.054691788 0.03529454 -0.011415071 0.06132879 0.02878649
-0.01803193 0.027980078 -0.05716908 -0.022144094 0.05471913 -0.06806374 0.0015446641 -0.08361782
0.04601369 -0.011172068 0.036031 -0.077194594 0.0041854233 -0.042235583 0.008027363 -0.07795443
-0.012855763 -0.010374826 -0.079722874 0.0549093 -0.067086376 -0.014085374 -0.050866276 0.066088535
-0.048776917 -0.058349792 -0.080117226 -0.01589252 -0.0039042667 -0.015799064 0.015685687 -0.068642244
0.01988597 -0.037749134 0.0028122738 -0.0037718301 -0.079208225 -0.034928672 0.059748415 0.044378325
-0.06341057 0.011131934 -0.076238476 -0.021090478 -0.05981442 0.023670584 -0.011795637 -0.037249204
-0.09173023 -0.04282988 -0.017007167 -0.03156619 -0.010728003 -0.014082499 0.0007100436 -0.045463186
-0.0029668452 -0.0021541726 0.048203506 0.007452652 -0.01837644 -0.03491988 0.05940075 -0.035394695
-0.03977047 0.029642282 -0.06674209 0.023632962 -0.0407842 0.052296147 -0.015770366 0.062192485
-0.08059667 0.008465347 -0.013923568 0.0036323327 0.051057983 0.012812744 -0.0021939275 -0.007819196
-0.056905456 -0.055223722 -0.002546277 -0.024914542 0.010602308 0.0149638355 -0.06342725 0.004475064
-0.04089053 -0.03926096 0.008595689 0.08306 0.00866713 0.06480882 -0.022988591 0.049452353
-0.023148859 -0.020419298 -0.0740256 0.023638276 0.02024352 0.039722823 0.051375538 -0.040924784
0.07040917 -0.068171665 -0.020742126 -0.011474316 -0.041595265 0.0013052202 -0.00046209886 -0.01807843
-0.01716703 -0.009222745 -0.013390655 -0.06393893 0.0039984873 0.049892303 0.017605798 -0.0043239705
0.048609424 0.06930027 0.012002469 0.0671399 0.021661352 0.003991492 -0.061052386 0.06723625
0.062209975 0.04900395 0.073771335 0.049584832 0.061940752 -0.04202614 0.040993333 0.018569242
-0.06884476 0.017492533 -0.029224034 -0.037770398 -0.05304432 -0.019682476 0.054346446 0.042352088
-0.038476337 0.056589216 -0.028628837 -0.073601134 -0.023063947 -0.018152278 0.036946584 -0.017461816
-0.044596583 -0.026462287 0.052644633 0.063975506 0.058559243 -0.025605852 -0.033944845 -0.019258847

layer3.bias f4 [20]
00000000: 16ee 213d 1543 733c 412e 133d 50e4 a9bc
00000010: 0bd1 eb3b 5495 e43b 1ddc 053c 61df 013b
00000020: 0c59 b9bc f435 e5bb 2a9d 8bbc a4cd 8e3c
00000030: fba4 2a3d 5ae9 baba 042c a93c 48fe 483a
00000040: 7705 1fbc ce35 d73c 19d5 f53c d057 0d3d
0.039533697 0.014847537 0.035932783 -0.02073875 0.0071965507 0.006975809 0.008170155 0.0019816982
-0.022625469 -0.006994957 -0.017042715 0.017432041 0.041661244 -0.0014260218 0.020650871 0.00076672854
-0.009705893 0.026270773 0.03000884 0.034507573
